deep-learning/pytorch/models/03_pytorch_computer_vision_model_2_tinyvgg.pth (torch, 35746 bytes, 10 tensors)

block_1.0.weight f4 [10, 1, 3, 3]
000000 18 70 88 3e 21 ab 9e 3e ff 45 ba be b8 72 36 3e
       0.2664802 0.30989936 -0.36381528 0.17817199
000010 71 57 62 3e 8b de 6a bd 33 24 ec be 7b 61 e7 3c
       0.22103669 -0.05734114 -0.46121368 0.028244724
000020 e6 59 bc 3e fe 3a a2 be 4e f3 b7 3e cd ed c9 bd
       0.36787337 -0.31685632 0.35927814 -0.0985981
000030 af a7 9a 3e 80 71 c6 3e 37 4a 4d 3d 24 f6 08 be
       0.30206057 0.3875847 0.050119605 -0.13375145
000040 79 f2 c2 3e fd d2 2f 3d f9 55 b4 be d2 9c f8 bd
       0.38075617 0.042925823 -0.35221842 -0.12139286
000050 07 d3 1d bd 4e 70 1e bf 3f 88 29 bf c5 3e 23 3e
       -0.03853133 -0.61890113 -0.6622352 0.15941913
000060 3c a0 40 bf 66 9c 19 bf 5b 57 4d bd 1a be 48 bf
       -0.752445 -0.6000427 -0.050132137 -0.7841507
000070 9d 6b 72 bf 55 38 59 bf 75 46 34 3e 0d 20 37 bf
       -0.94695455 -0.8485158 0.17605002 -0.7153328
000080 f6 c9 8b 3d 6d e1 8e 3e fd 60 55 bc d5 bd c3 3e
       0.0682563 0.2790636 -0.013023612 0.38230768
000090 24 e5 18 bc 41 63 ae 3e 24 e7 27 be 4c 9e 18 be
       -0.009331975 0.340601 -0.16396767 -0.14904135
0000a0 b2 07 af 3e ea b9 b0 be a3 4a 3c bc 1a 3a c2 3e
       0.3418556 -0.3451684 -0.011492404 0.37934953
0000b0 0f 63 27 3e 50 45 11 be d9 c0 45 3e b9 09 74 3d
       0.16346382 -0.14186597 0.19311847 0.059579585
0000c0 af b6 31 3e 95 bb 4f be f0 0d a9 be d9 d3 01 be
       0.17354845 -0.202864 -0.33018446 -0.1267847
0000d0 3b b1 81 be e1 ad 92 3e 02 60 84 3d e3 02 31 bd
       -0.2533053 0.28648284 0.064636245 -0.043215644
0000e0 99 d4 96 bd e3 ce 48 bd 09 45 b2 3d 94 8f 9d be
       -0.073647685 -0.049025428 0.08704574 -0.30773604
0000f0 bb 3b eb bd 63 51 ee be 50 55 d3 bd 5e 61 bc bd
       -0.11486002 -0.46546468 -0.103190064 -0.09198259
000100 de f3 c4 3d 2d c9 da bd e5 04 b8 3e 25 5d 90 be
       0.096168265 -0.106829025 0.35941234 -0.28196064
000110 9b 3b 9c be c3 87 62 be f7 45 98 3e ae f7 07 3e
       -0.30514225 -0.22122101 0.2974088 0.13278076
000120 b3 ba ce 3e c4 27 8b be 68 71 aa be 49 8e 8b be
       0.40376815 -0.27178776 -0.33289647 -0.27256992
000130 f9 4b 64 be e9 b6 27 3e b7 37 13 3e ef cd bc 3e
       -0.22294606 0.16378368 0.14376722 0.36875865
000140 27 22 07 be 69 52 68 be 2b bc 34 3e 39 df 09 be
       -0.13196622 -0.22687687 0.17649905 -0.13464059
000150 a5 2c 4f 3e 8d bc a3 bd 3e f8 41 3e 0c 9f 84 be
       0.20231874 -0.079949476 0.18942353 -0.25902593
000160 6c 30 2c be be e2 ce 3d
       -0.16815346 0.101018414

block_1.0.bias f4 [10]
000000 52 2b c8 ba e8 0a 0e 3e 15 24 43 3e 26 62 be 3d
       -0.00152717 0.13871348 0.19056733 0.09296064
000010 73 c9 d6 3d bc 30 2a be 4e f0 8b 3e 1e 6b 79 bd
       0.10487642 -0.16620153 0.27331775 -0.06089317
000020 5f b1 44 bd dc bd a5 be
       -0.048020717 -0.32371414

block_1.2.weight f4 [10, 10, 3, 3]
000000 ef 50 c9 3d 0f a7 91 3c 44 35 07 bc d9 2e 98 bd
       0.0982989 0.017779855 -0.008252446 -0.074308105
000010 09 9a 02 be e1 81 05 be 1e 33 15 be 1b fb 4b be
       -0.12754072 -0.13037826 -0.14570281 -0.19920008
000020 03 2d 0d be 7d cc 42 bd 36 c4 fe ba 37 aa 55 bd
       -0.13786702 -0.047558296 -0.0019437138 -0.052164283
000030 52 8b df bd b4 b6 92 be 99 a8 4c be e1 b8 90 bd
       -0.10915245 -0.28655016 -0.1998619 -0.07066513
000040 06 ed 54 be 37 b9 40 be 4d f6 63 bc f7 bc bc bb
       -0.20793542 -0.18820654 -0.013913703 -0.005759831
000050 82 f4 c1 3d 74 ad e5 3d 77 e4 76 3e 7a 6e 49 3e
       0.09470464 0.11214724 0.2411059 0.1967105
000060 15 99 bf bd 37 d3 10 bd 95 9b ae 3d 18 db 38 be
       -0.0935537 -0.03535768 0.08525769 -0.18052328
000070 3b b4 1e bd 64 85 51 be a1 ab 1c bc dc 77 e2 bc
       -0.0387461 -0.2046104 -0.009562404 -0.027645044
000080 44 41 04 be d4 dc 25 3e d0 81 fd bb 64 d5 83 3b
       -0.12915522 0.1619752 -0.007736422 0.004023241
000090 83 d5 fc bd d6 e1 34 be 5a 9f 28 bd a5 a9 7e bd
       -0.12345412 -0.17664275 -0.041167594 -0.062173504
0000a0 6d ee 42 bd 74 67 1d be ae 68 0a 3e dc eb 0f be
       -0.04759066 -0.15371495 0.13516495 -0.14054817
0000b0 86 a9 78 bd a1 2c b7 3c 15 66 5f 3d 9b e1 ac 3d
       -0.060708545 0.022360148 0.054540712 0.08441468
0000c0 79 5f c4 3d be 9d ab bd f2 2b f2 3c 6e b8 3a bd
       0.095885225 -0.08379696 0.02956197 -0.045586042
0000d0 7e 03 51 bc dd b7 9d bd a7 37 e1 3d f6 3b b5 bd
       -0.01275718 -0.07701085 0.10996943 -0.08849327
0000e0 96 33 2c bc 60 bc 2a 3e 2a ed ef 3d ed 9d 1f 3c
       -0.010510346 0.16673422 0.11715157 0.009742242
0000f0 78 96 0b 3d 72 52 7f bc 6f c3 bd bc 95 2b a4 bd
       0.034079045 -0.015583621 -0.023164479 -0.08016125
000100 b6 04 44 3d 79 49 04 bc 84 49 27 bd 15 49 b2 3d
       0.047856055 -0.008074158 -0.040841594 0.087053455
000110 0d 38 64 3c c1 58 46 bd 04 fe 98 bd 9c 17 5e bc
       0.013929379 -0.048424486 -0.07470325 -0.013555434
000120 72 d0 aa 3d ee 98 85 bc 26 cb 47 bd 3e d8 f3 bc
       0.08340539 -0.016308274 -0.04877772 -0.029766198
000130 5f 86 9b bd 6a a2 4f 3d b7 20 ca 3d 9e 01 d5 bd
       -0.075939886 0.050692 0.09869521 -0.10400699
000140 a6 c5 33 3b 46 05 5f 3d 39 55 9c 3c c8 c3 19 bd
       0.002743104 0.05444839 0.019083606 -0.037540227
000150 e9 59 61 3d c6 e4 62 3d 02 74 21 3d d8 bc 97 bc
       0.055017386 0.055393957 0.039417274 -0.018522665
000160 c4 a8 e4 bc be bb 38 3c 7b 6e 7b 3c 7a 7d b6 bd
       -0.027912505 0.01127523 0.015346165 -0.089106515
000170 1b 82 af 3c cc e4 3e 3e c6 49 54 bc 4e 5f dc bd
       0.021424344 0.18641967 -0.012957042 -0.107603654
000180 6b 97 5a 3d e1 3b 59 3d b2 55 22 3d 7e c6 61 3d
       0.05336706 0.05303562 0.039632507 0.055120938
000190 2d 0d cf bd 5f 96 69 bd db 94 05 3e d5 87 90 3d
       -0.10109935 -0.05702817 0.13045065 0.07057158
0001a0 ed ae ee bc 5e 47 55 bd 77 fc b3 bc 00 f7 87 bd
       -0.029136145 -0.052070014 -0.02197097 -0.066389084
0001b0 92 40 23 bd f9 16 01 3d f5 33 88 3d a8 bf 32 3d
       -0.0398565 0.03151605 0.06650535 0.04363981
0001c0 d5 85 cc bd 7f 19 ab bd e4 3d 71 bc 2b 1a d6 3d
       -0.09986464 -0.08354472 -0.0147242285 0.1045421
0001d0 0c 1d f3 3a 77 64 19 bc cd fe af 3d c0 3d 8b bc
       0.0018548085 -0.009362332 0.08593521 -0.016997218
0001e0 63 7e af bd 18 2c b2 3d 0d 74 2f bd 08 d3 00 bd
       -0.08569028 0.086998165 -0.042835284 -0.031451255
0001f0 71 ed d1 bd 34 30 04 3e 31 13 df 3d 9c ce ea 3c
       -0.102503665 0.12909013 0.10892332 0.028662972
000200 c0 96 d6 bd b1 63 a6 bd 85 56 95 bd 2b 02 1d 3d
       -0.10477972 -0.081244834 -0.07291893 0.038332146
000210 79 79 34 3d 7b cd ef 3d d5 1b 56 3d 8f 97 dc 3c
       0.044061158 0.11709114 0.052272636 0.026927738
000220 15 7a 4d ba 66 1c a4 bd 0b 1c b9 bd a8 cf c9 bd
       -0.0007838321 -0.08013229 -0.09038552 -0.098540604
000230 16 a6 31 3d 55 36 54 bd 09 a9 ae bc ce 6e 77 bd
       0.043371283 -0.051809628 -0.021320837 -0.060408406
000240 e4 d9 e3 bc 68 c6 b1 bd b6 fc a0 bd 7a 22 17 3d
       -0.02781386 -0.08680421 -0.07860701 0.036898114
000250 70 bb 7b bd 5e fc 22 3d 84 1c 0b bd 2f cb ad bd
       -0.06145805 0.039791457 -0.03396274 -0.0848602
000260 48 0b 19 bd e1 20 12 bd e9 34 67 bc ed d4 c8 bd
       -0.037364274 -0.035675887 -0.014111736 -0.09806237
000270 05 40 a1 3d fd 92 59 bd 18 a9 64 3d 24 bc 2e 3d
       0.07873539 -0.053118695 0.055825323 0.042659894
000280 15 a5 b0 3d 21 1e 70 bd c7 6b b0 3d 28 1c 46 bd
       0.08625237 -0.058622483 0.08614307 -0.048366696
000290 4c 5a 3a 3d 11 6e d1 3d b9 ff b1 3a 8f 1f f7 3b
       0.04549627 0.102260716 0.001358024 0.007541604
0002a0 b8 13 ca bc a7 4b d1 bd d0 c4 63 3d fe 46 d6 bd
       -0.024667606 -0.10219508 0.055607617 -0.104627594
0002b0 1c fb 85 3d b4 87 a1 3d bd 17 cc 3d cd bc cb bc
       0.06542036 0.078872114 0.09965465 -0.0248703
0002c0 cd 74 b1 bd ab 31 c2 3c a0 82 6e 3d bd d6 d6 bd
       -0.08664856 0.023705324 0.058230042 -0.10490177
0002d0 69 c3 d3 bc 14 64 87 bd 3c 4d 37 bc 5a f1 51 bd
       -0.025850015 -0.06610885 -0.011187848 -0.05125556
0002e0 94 1d 34 bd 47 a0 09 bd 53 c5 cb bd 48 8d b2 3d
       -0.04397352 -0.033600118 -0.09949746 0.087183535
0002f0 9a 34 b4 3d 64 3c 8c bc cd 1d 51 bc bb 9e 2f bd
       0.087990955 -0.01711864 -0.012763453 -0.042875987
000300 5d e6 bd bd 19 f8 cf bd 33 65 22 3d 43 fc 5a bd
       -0.09272454 -0.10154743 0.039647292 -0.05346323
000310 cd a3 86 bd 00 58 ef bb 04 09 1e bd 6b 8b 1e bd
       -0.06574211 -0.0073041916 -0.038582817 -0.038707178
000320 ba eb 78 ba e2 4a b8 bc 62 85 1d bd 0b e8 58 bd
       -0.0009495575 -0.022496644 -0.038457282 -0.05295567
000330 9c 8d ae bd 2d ce b6 3d 9d 42 2c bd ed c4 c1 3c
       -0.085231036 0.08926044 -0.042055715 0.023653472
000340 98 e5 26 bd 62 51 4c 3b cf 1d cf 3d 3c 4c 55 3d
       -0.0407463 0.0031176438 0.101131074 0.052074656
000350 32 ae b8 bd b8 ad 10 3d 9e 7d c7 3d 2a 16 bc 3c
       -0.090176 0.03532192 0.097407565 0.022959787
000360 e5 4e 8f 3d 55 5f d3 3d b9 47 88 bc 71 f3 d1 3c
       0.0699747 0.103209175 -0.016635763 0.025628777
000370 5c 1d 93 bd b4 3e a9 bc b4 af 9d 3d 4a ee 50 3d
       -0.07183334 -0.020659782 0.07699528 0.0510085
000380 89 cb 91 bd 9a 1d ad bd 20 7e 93 bd 91 0d d5 bd
       -0.071188994 -0.08452912 -0.07201791 -0.10402978
000390 7b 94 a6 bd 5a f7 d5 bc 91 d3 91 3d 96 6b 90 3c
       -0.08133789 -0.026118923 0.07120431 0.017629426
0003a0 7f 10 a4 bd 3b 34 ad bd 0d 86 43 3d 54 32 ab bd
       -0.08010959 -0.08457228 0.047735263 -0.08359209
0003b0 e0 8a 95 bc b6 46 46 3d 23 65 50 bd be 6b 44 bc
       -0.018254697 0.04840728 -0.0508777 -0.011988578
0003c0 98 80 12 bc 96 0c cb bc e3 c5 5d bd 6e 7d c0 bd
       -0.008941792 -0.024786275 -0.054143798 -0.09398924
0003d0 f4 86 ae bd 09 30 67 bd 4b cb d0 3d 4f 88 51 bd
       -0.08521834 -0.056442294 0.10195025 -0.051155385
0003e0 f1 28 91 bd bd 17 ca 3c b4 56 f1 3c 6e 34 6a 3d
       -0.07087887 0.024669522 0.029460289 0.057178907
0003f0 87 ed a3 3d 82 43 70 3d d0 20 d6 bd 5a 8e 4c 3c
       0.08004289 0.05865813 -0.10455477 0.012485111

block_1.2.bias f4 [10]
000000 76 cb cb 3e c7 f0 d7 bd ec a0 6e bd 54 2d e2 3e
       0.39803666 -0.105439715 -0.058258936 0.44175208
000010 48 07 1a be 4b 10 fa 3d 49 ec 96 ba c7 e8 06 be
       -0.1504184 0.12210139 -0.001151451 -0.13174735
000020 4e 1b 86 3e 1b 85 61 3e
       0.26192707 0.22023432

block_2.0.weight f4 [10, 10, 3, 3]
000000 2b 4a 28 3c 36 d5 94 bd ea 09 4d bc 5f c5 44 3b
       0.010271589 -0.07267229 -0.012514571 0.003002487
000010 9c 1b 52 3d 0f 46 28 3e 04 c0 4c bd 9e 78 97 3d
       0.05129586 0.16432975 -0.049987808 0.07396053
000020 bf f1 13 3e c7 d9 7a 3d d9 8e c1 bd f6 80 19 bd
       0.14447688 0.061242845 -0.09451074 -0.037476502
000030 ec bd 9f bd 79 a0 4a bd 9a 11 89 3d 75 c4 0e 3b
       -0.077998966 -0.049469445 0.0669281 0.0021784578
000040 20 43 41 3d 97 59 6c bd 71 cb 86 3c 8a e5 81 bd
       0.047183156 -0.057702627 0.01645443 -0.06342609
000050 9c e7 58 3d 8b b5 3c bd e5 95 d7 bc e3 39 bb bd
       0.052955255 -0.04607157 -0.026316592 -0.091419004
000060 77 0c a5 39 23 08 cd 3d 40 d0 51 3d 06 46 f7 bd
       0.0003148054 0.100113176 0.051223993 -0.12073903
000070 89 02 94 3c 6f db 27 bd b6 a9 f2 bd 85 a4 c1 3d
       0.018067615 -0.040980753 -0.11848776 0.09455208
000080 ca 1a 64 bd 64 1c 5c bc 75 e2 b2 bd 8e 05 93 bd
       -0.05568961 -0.013434503 -0.087345995 -0.07178794
000090 e4 f0 d2 3a c0 5f 39 3d 07 6d 72 3c 9a f5 68 bd
       0.001609352 0.04525733 0.014796502 -0.05687485
0000a0 68 60 da 3d f0 3c d2 bc 24 46 8a bd 9e 27 3c bd
       0.10662919 -0.025663823 -0.067516595 -0.04593622
0000b0 15 5c d1 3d e9 94 f7 3c 11 e5 bb bc 54 37 0b bd
       0.102226414 0.030222373 -0.022936376 -0.033988312
0000c0 77 51 98 3c a6 43 ad bd de d1 84 bd 2b f2 b5 3d
       0.018593533 -0.084601685 -0.064853415 0.088840805
0000d0 48 cb 0a 3e 15 c6 1d 3e 3b c7 17 be 06 6c c1 3d
       0.13554108 0.15407594 -0.14822094 0.09444432
0000e0 c4 ce da bd fe a4 fb 3c 2c 7f 18 3e 55 30 57 3d
       -0.10683969 0.030718323 0.14892262 0.052536327
0000f0 3c 5b 03 3e f9 64 30 3d 2a 87 8b bd 8d e5 0c 3d
       0.12827772 0.043065045 -0.0681289 0.034398604
000100 d4 65 e8 bc 26 1c f0 3b 10 aa 80 3b b2 18 7a 3d
       -0.028368868 0.0073275743 0.003926523 0.061058708
000110 bf 91 e9 bd 90 27 11 3d ee c1 64 bd c9 3c 81 bd
       -0.11404752 0.03543812 -0.05584901 -0.06310422
000120 3d dd 1d be 6a a6 4f bd f3 c9 9c bc fe 09 f9 3c
       -0.15416427 -0.050695814 -0.019139266 0.030400272
000130 a0 99 0b 3e 08 8c c7 3b d6 3e b9 bd 91 36 c5 bd
       0.13632822 0.006089691 -0.09045188 -0.09629548
000140 93 2a 9b 3a 0b 0e 3b 3e b9 ee a0 bd 38 03 32 3d
       0.001183825 0.18267076 -0.07858033 0.0434601
000150 23 48 50 3e 80 df fe 3c 53 6f 8b bd 7f b0 18 3e
       0.20340018 0.031112432 -0.06808343 0.14911078
000160 a7 99 2e 3d cc 6d 9b 3d d4 b3 b9 bd e2 f7 81 be
       0.042627003 0.075893015 -0.090675026 -0.25384432
000170 b5 79 4f be 72 7e 17 3e 5e d3 6e be 5b ef 10 bc
       -0.20261271 0.14794329 -0.23322818 -0.008846129
000180 5f 4e 62 3d 85 29 fd 3d 46 61 18 bc 76 d5 6f 3d
       0.05525052 0.12361435 -0.009300536 0.05855318
000190 9f 36 b3 bd 80 e3 3d be 8f 53 25 bd cd a3 95 3d
       -0.087506525 -0.18543816 -0.04036289 0.07306633
0001a0 2e 24 27 bd d9 c6 0f 3d 04 0b 87 bd 8b e5 84 3d
       -0.040805988 0.035101745 -0.06593898 0.06489094
0001b0 97 16 7c 3d aa 8a 1d 3d 89 6f 5c bd cb 5b b0 bd
       0.06154498 0.03846232 -0.053817306 -0.08611258
0001c0 0c 65 7c 3b f0 52 7e bd b8 0f b2 3d ab 5f cf bd
       0.0038512377 -0.062090814 0.08694404 -0.10125669
0001d0 b7 6f 40 3d f2 af 95 bd 84 41 06 3f f7 bd b7 3e
       0.04698154 -0.073089495 0.5244372 0.3588712
0001e0 0d 45 93 be b7 26 4a 3f 82 c4 ad 3e ca 95 4f bf
       -0.2876362 0.78965324 0.33938986 -0.81087935
0001f0 2c 1c 6e be 2b 18 53 be f4 cf d9 3c 45 15 bf 3d
       -0.23252934 -0.20614688 0.026588418 0.09330229
000200 35 0c ed 3c 83 2c 59 bd ad bc bc bc 27 17 a3 3b
       0.028936485 -0.053020965 -0.023039186 0.004977125
000210 29 31 af 3c 2e 91 00 be c5 a4 34 bd 04 3c c7 3d
       0.021385746 -0.12555382 -0.04410245 0.09728244
000220 07 a0 d7 be 78 37 30 be 60 06 29 3e b8 74 e8 3d
       -0.4211428 -0.1720866 0.16506338 0.11350387
000230 0e 53 26 3d 28 cf 45 3e c8 e0 27 3e 34 d5 49 3d
       0.04060655 0.19317305 0.16394341 0.049275592
000240 a3 4b 00 bf 40 58 5a bd 30 f7 de 3d df 3e fe be
       -0.5011541 -0.053306818 0.10886991 -0.49657342
000250 d4 e9 ae 3e 42 5d c6 3e 81 d8 e2 be 48 1b 40 3d
       0.34162772 0.38743025 -0.44305804 0.046901017
000260 39 64 1a bd 1e 28 3d bc 67 37 9d be ed fc 8e bd
       -0.037693236 -0.011545209 -0.3070633 -0.069818355
000270 f8 4b 9a be 3e d5 c0 3d 77 6c 51 bd 3c f6 91 be
       -0.30136085 0.09415673 -0.05112883 -0.28508174
000280 94 23 f5 bc 4e 4a 63 bd a3 6f d7 be 74 fc 5a 3e
       -0.029924192 -0.055490784 -0.4207736 0.21385366
000290 95 19 ec 3e ba 5c 5f be 27 11 c6 3e f9 04 7d 3e
       0.46113268 -0.21812716 0.3868496 0.24708928
0002a0 35 27 92 be 05 52 c1 bd 6d 93 f2 bd e5 2c cd 3e
       -0.28545538 -0.09439472 -0.118445255 0.40073314
0002b0 44 b0 e8 bd 6d 1c af be 75 70 63 3e e9 ac bc 3c
       -0.11361745 -0.34201375 0.22210868 0.023031669
0002c0 8a 71 66 be 26 56 6e be ef 16 57 3d 76 e7 ea 3d
       -0.22504249 -0.2327505 0.052512106 0.11469929
0002d0 36 9a 88 bc e8 c5 a2 3d f8 cb 7d 3d 8a f4 8e bd
       -0.016675096 0.07947904 0.061962098 -0.06980236
0002e0 7d df d0 bd f3 8c ca bd 4c 70 9f bd 71 4b 58 bd
       -0.10198877 -0.09890165 -0.07785091 -0.05280632
0002f0 5f e7 b1 bc b8 40 d0 bc 8b 7c 68 bd 69 e6 08 bd
       -0.021716772 -0.025421485 -0.0567594 -0.03342286
000300 e4 68 1c bd 7d 5f d1 3d fd 1c 14 bd b6 1d 9f bd
       -0.03818597 0.10223291 -0.036160458 -0.07769339
000310 6b a8 34 3d 0a d4 c4 bb fb 3c a5 3d d9 e7 86 3d
       0.04410593 -0.0060067223 0.08068272 0.0658719
000320 7e 4e c6 3d a5 12 9e bd 70 ca 8a 3d 8e 30 b5 3d
       0.0968294 -0.077184 0.06776893 0.08847152
000330 64 15 55 bd 95 56 c6 3d 2d d6 a1 3d 27 85 a8 bd
       -0.052022353 0.09684483 0.07902179 -0.08228522
000340 a9 4b 25 3d 15 43 b1 3c f0 ef 1f be 16 dd 3c 3d
       0.04035536 0.021638433 -0.15618873 0.04610928
000350 25 d4 83 3d 87 24 bf bd 7c 0f 05 3d 13 e6 01 be
       0.06436948 -0.09333139 0.03248547 -0.12685423
000360 58 e2 a2 3d dc c3 c3 3d 20 69 e8 3c 10 6e 91 bd
       0.07953328 0.095588416 0.02837044 -0.07101071
000370 68 5e 82 3d 34 ec 0a 3d 42 e2 50 3c 9c 82 e3 3c
       0.06365663 0.033916667 0.012749257 0.02777224
000380 dd ab 89 3d 3c 0e f6 bc ed 07 c3 bc 8e fe 17 3d
       0.067222334 -0.030036084 -0.02380749 0.037107997
000390 39 42 53 bc 8b f4 b9 3d 8a 9f 51 bc 9e 58 9e bc
       -0.012894207 0.09079846 -0.012794385 -0.019329365
0003a0 36 d5 a8 3c 90 ad e5 3b 5b 80 fd 3c 24 0a f8 bc
       0.02060948 0.0070092157 0.030944994 -0.030278273
0003b0 30 f1 85 bd 78 10 ff bc 92 ff 5d bd cf f3 68 3d
       -0.065401435 -0.031135783 -0.05419881 0.05687314
0003c0 c6 2b 49 bd 22 04 db bd df b7 d2 bc 74 52 d8 bc
       -0.04911401 -0.10694148 -0.025722442 -0.026406504
0003d0 56 95 50 bd 4f 44 dc 3d 8c 39 e3 bc b8 7f 9e 3d
       -0.050923668 0.10755216 -0.027737401 0.07739204
0003e0 68 eb 57 3d 2f b4 e2 bd b5 72 e4 3c 29 71 a4 3d
       0.052714735 -0.110695235 0.027886728 0.08029396
0003f0 67 43 09 be b5 54 b9 bd 7c 91 01 3e 4e 66 01 3d
       -0.13404618 -0.0904936 0.12653154 0.031591706

block_2.0.bias f4 [10]
000000 6b d4 3b bd 72 ff 8d 3d 0e 25 bb bc 3c 65 0b be
       -0.045856874 0.06933488 -0.022844817 -0.13612837
000010 23 02 3b be 91 5c 23 3d 21 11 62 3e 98 4a 93 3e
       -0.18262534 0.0398832 0.22076847 0.28767848
000020 7f e8 41 3f 41 fc 78 bd
       0.75745386 -0.060787443

block_2.2.weight f4 [10, 10, 3, 3]
000000 8d 1d a2 bd 9c 7d 2e be 92 6e 20 3c 91 9f 6d bc
       -0.079157926 -0.17040104 0.009791987 -0.014503376
000010 3c 65 19 bd f3 ac b2 3a 95 00 63 bc 16 8c e6 bd
       -0.03745006 0.0013631865 -0.013855119 -0.11257188
000020 ec 56 60 3d a0 ef 27 be 07 14 a5 be a7 de 33 be
       0.054770395 -0.16400003 -0.32241842 -0.17565404
000030 fe 63 76 3b 04 a7 cc bd 4e c4 2e bf 3d 1a b1 3e
       0.003759622 -0.09992793 -0.6826829 0.3459033
000040 b6 ad 42 3e 19 67 44 bf b6 4b 82 ba 41 f2 2b 3b
       0.19011578 -0.76719815 -0.0009940777 0.0026236924
000050 3e bb 9a 3d a6 71 0e be 03 b7 87 3d 94 2b 41 3c
       0.07555245 -0.13910541 0.066267036 0.011790175
000060 a9 14 99 bc 63 bc ae 3d 69 07 c7 bd df bf dd bd
       -0.01868661 0.08532026 -0.0971821 -0.10827612
000070 8b d7 13 3e f9 c9 87 bd 82 e1 b4 bd 8c 11 d5 3c
       0.14437692 -0.0663032 -0.08832075 0.026009344
000080 54 72 fa bc 36 05 08 bd d2 46 f9 39 1d 4c 20 bc
       -0.030572094 -0.033208095 0.00047545746 -0.009783772
000090 55 64 ad bd ea 32 a5 bd 53 f7 27 bc 24 fa b1 bc
       -0.084664024 -0.08066352 -0.010251838 -0.021725722
0000a0 02 b3 b0 bd 16 4b 5f bd a2 6e 88 bd 85 d5 d8 bd
       -0.08627893 -0.054514967 -0.066617265 -0.105876006
0000b0 70 2e 6a be 6b d3 7d bd 19 01 90 bd bc 97 05 3e
       -0.22869277 -0.061969202 -0.07031459 0.13046163
0000c0 02 84 72 bc d0 05 b2 3c 10 86 a4 3d 1e c6 e4 bb
       -0.014801981 0.021731287 0.08033383 -0.006981625
0000d0 78 bf 5f bd 0a 37 92 bd 38 67 14 be 15 9b e7 3c
       -0.05462596 -0.07139404 -0.144925 0.028272191
0000e0 f8 ea 42 be 73 f5 98 be de 9f 2e be 71 1f c4 3d
       -0.19034946 -0.29874763 -0.17053172 0.095763095
0000f0 9c 88 37 be f3 75 8c 3e 13 d5 7f 3e 21 a2 ad 3e
       -0.17923206 0.27433738 0.24983625 0.33912757
000100 71 57 be 3d ca eb 7c 3d e5 d8 1f bd 31 ba 65 3d
       0.09294022 0.061748303 -0.039025206 0.05608577
000110 e9 86 9f bd d9 38 53 be 89 74 b0 3d fb e4 2e be
       -0.07789404 -0.20627154 0.08615977 -0.17079537
000120 d2 13 bc 3e 59 5b 22 be 29 c7 3a 3d 12 3c 9c 3d
       0.36733872 -0.15855159 0.04560009 0.07628645
000130 e6 55 91 be be 95 be 3d ed c1 90 be 75 c1 a7 be
       -0.28385848 0.09305905 -0.28272954 -0.32764784
000140 5e de 87 be c5 e7 55 bd a1 d4 5c 3d 17 d0 6c bd
       -0.2653684 -0.052222986 0.053913716 -0.057815637
000150 0a 1c de 3b c6 0e 9d bd 5c 9e 29 bd 3b 0c f7 3c
       0.006778245 -0.076688334 -0.04141079 0.0301572
000160 6e 08 71 bc e3 2b 38 bd c9 d3 72 3d a6 27 47 3d
       -0.014711482 -0.04496373 0.059284005 0.048621796
000170 3f 5e d5 3c c0 c3 df bd a1 54 0f 3b 62 66 fd bc
       0.026045917 -0.10926008 0.002187051 -0.030932609
000180 9b 73 27 3e 03 53 28 bc c2 5d 7b 3d b8 05 0b 3e
       0.16352694 -0.010273698 0.06136871 0.135764
000190 09 e4 6d 3e 0f 8a 82 be 23 98 ba bd 55 b4 72 be
       0.2323152 -0.25495955 -0.09111049 -0.23701604
0001a0 f1 70 bb 3e 5b 4e 37 be 15 2a 22 bf e1 52 8e 3e
       0.36609605 -0.17900984 -0.6334546 0.27797607
0001b0 e9 42 96 bc 9a 55 8a bc ac d3 e3 3d 3b 33 79 3d
       -0.018342452 -0.016886521 0.111243576 0.060839873
0001c0 cc 1e ed bd 84 3d c0 3b 1f 8c 62 bd 98 50 13 be
       -0.1157814 0.0058667082 -0.05530941 -0.14386213
0001d0 45 c3 df bc 59 bc 02 bd 1b 66 a4 3d 46 84 cd 3d
       -0.027314791 -0.031917904 0.080272876 0.10034995
0001e0 e7 a5 ed 3d cf e6 be bd b5 ed a7 bd d9 7e 14 3e
       0.11603909 -0.09321367 -0.08199636 0.14501514
0001f0 ff 16 40 3d a7 79 b1 3a 8a f8 4a bc d5 ae 57 3d
       0.04689693 0.0013540284 -0.012388358 0.052656967
000200 42 8c d9 3c 69 19 93 3d d8 53 05 bc e0 64 1d 3d
       0.026556138 0.07182581 -0.008137666 0.03842628
000210 92 39 19 3e 57 c2 91 3d b7 cd cd bd 1b c5 34 bd
       0.14963368 0.071171455 -0.100490026 -0.044133287
000220 a6 45 54 3d a8 23 81 3d 67 03 fd bd f8 e4 c6 bd
       0.051824234 0.06305629 -0.123541646 -0.09711641
000230 a3 82 f0 3b e2 07 3e bd 8d 1d 95 3c 24 a5 46 bc
       0.007339792 -0.046394236 0.018202567 -0.0121243335
000240 df bb e9 bd 76 dd 85 be 2e 65 80 3e 3c 0a d8 bd
       -0.11412787 -0.26145524 0.25077194 -0.10548827
000250 c3 79 76 be 71 aa cf 3e 04 9f 3b 3e 0a 90 f4 bd
       -0.24069886 0.40559724 0.18322378 -0.11941536
000260 07 1c a0 3d 4a 8b 11 bd 00 e5 25 be 92 86 6e 3d
       0.07817846 -0.035533227 -0.16200638 0.058233805
000270 1e 95 10 3e 7d 4c ce be 98 fd 18 bd 91 18 75 3e
       0.14119384 -0.4029273 -0.03735122 0.23935153
000280 56 27 13 bf 02 d6 57 3d 41 d8 a5 be 33 b8 21 be
       -0.57481897 0.052694328 -0.3239155 -0.15792923
000290 c2 af 65 be ef f8 f8 3d 28 81 35 3e 12 d5 d9 be
       -0.22430328 0.12156855 0.1772505 -0.42545372
0002a0 fc fe 06 3e 3a df f2 3d bf 8b 8e bd 45 65 a1 bc
       0.13183206 0.11858983 -0.06960248 -0.01970161
0002b0 f0 d5 ab 3d a6 a4 08 3e 3b 37 8a bd 5f a2 94 bd
       0.08390415 0.13344058 -0.067488156 -0.07257532
0002c0 8b a8 65 3d f7 54 15 bb 30 b7 a4 bc ce eb a8 bd
       0.05606894 -0.0022786239 -0.020106882 -0.08248101
0002d0 bf 85 a5 3d 46 46 c8 3c 44 b8 80 bd 9a df b8 bd
       0.08082151 0.024447571 -0.06285146 -0.090270236
0002e0 3a 73 82 bb ad 7b ba bd 64 4b 34 3d 7b 8e 23 3e
       -0.0039810212 -0.091056205 0.04401721 0.1597232
0002f0 73 32 87 bc 53 64 2e bf 0e c9 d1 bd ae f8 25 bf
       -0.016503548 -0.6812183 -0.10243426 -0.6483258
000300 a7 18 db be f4 9e 16 3f 5c 12 87 be a4 fa 7d be
       -0.42792246 0.58836293 -0.26381195 -0.24802643
000310 07 95 fa 3d 88 33 d2 3e f6 9b a5 bc f8 9f ed bc
       0.12235456 0.4105494 -0.02021597 -0.029006943
000320 f6 d3 87 bc 33 0b 6b bc c3 5c ad 3c 44 a9 73 3d
       -0.016580563 -0.014345932 0.021162396 0.059487596
000330 cd 99 d5 bc d2 a0 cc bd cc ed 78 3d 8d 6a 9f bd
       -0.026074314 -0.099916115 0.060773656 -0.07783995
000340 2e 14 b0 3d 8a c7 ad bc 92 07 2c 3d 79 07 57 3d
       0.08597599 -0.021213312 0.041999407 0.05249736
000350 87 e5 44 be 50 7c fb 3c 84 e4 c8 3a 32 eb d4 bd
       -0.19228183 0.030698925 0.0015326892 -0.103964224
000360 ba 89 fe 3d 0f d0 5d bd b4 6a 01 be 46 ff 03 3c
       0.12428613 -0.0541535 -0.1263836 0.008056467
000370 77 ba c0 3d 60 bc 3b be 2e 68 e5 3d 63 e8 88 3d
       0.09410565 -0.18333578 0.11201511 0.06684949
000380 81 fc 64 bd 49 94 b0 3d 81 98 13 3c 8c c3 f9 bd
       -0.05590487 0.08622033 0.009008528 -0.12195501
000390 47 ac 9e 3d ac 19 9d 3c 6b 90 28 bc ce 4d 9c bd
       0.07747703 0.01917728 -0.010288338 -0.076320276
0003a0 96 41 56 b9 1d 72 6d bd bf f3 12 bf c9 db cd 3d
       -0.00020433063 -0.057970155 -0.5740318 0.10051686
0003b0 16 86 46 3e 1f 93 9e be a2 d1 a7 bd 64 f4 35 bd
       0.19387087 -0.3097162 -0.08194281 -0.044422522
0003c0 ad cf 05 bd 75 27 35 3e bb 8b f8 3d 64 da e6 be
       -0.03266876 0.17690833 0.121360265 -0.45088494
0003d0 8b 10 07 3f 7b c9 3c 3e 0b b2 9d bd 9d 2d e5 3d
       0.5275962 0.18436234 -0.076999746 0.11190341
0003e0 b4 e4 35 bd fb 9b 08 3e 26 22 cb be f3 7f 4f be
       -0.04440756 0.13340752 -0.3967449 -0.20263653
0003f0 97 22 07 be c7 4c 86 bd cb 4a 12 3e 26 0a 6f 3c
       -0.13196789 -0.06557613 0.14286344 0.014589822

block_2.2.bias f4 [10]
000000 a2 6f 3a 3e eb 86 f4 bb 83 2f 70 3e 56 32 47 3d
       0.18206647 -0.0074623725 0.23455624 0.04863199
000010 71 5a 09 be 36 0c 7c 3e 8e 27 3d 3d ae b8 b6 bd
       -0.13413407 0.24614033 0.0461803 -0.089219436
000020 a1 e7 74 3d d2 bb 9a bd
       0.05979121 -0.07555355

classifier.1.weight f4 [10, 490]
000000 dd ef 54 bc 4a b5 73 bb d4 68 4d 3d 5c 8a 60 be
       -0.012996641 -0.0037186914 0.0501488 -0.2192778
000010 a7 76 23 3d 2d f6 da bd 68 e8 24 3d 6d 39 49 3d
       0.039908078 -0.106914856 0.040260702 0.04912703
000020 5d bb 42 3e e0 0b c9 3d 38 47 48 be e0 81 f6 3d
       0.19016786 0.09816718 -0.19558418 0.120364904
000030 34 20 f7 3d 0e b7 33 3e b1 79 38 3d bd d2 e0 3d
       0.12066689 0.17550299 0.04503793 0.10977695
000040 4d 4e 52 3e 17 70 20 be b0 1d 19 3e 0b 3b d8 3c
       0.20537682 -0.15667759 0.14952731 0.026395341
000050 14 6c 02 bd e3 77 da bc cd d6 26 3e ce 38 7c bd
       -0.031841353 -0.026668495 0.16292877 -0.06157761
000060 af fb 88 bd d0 77 08 3e 63 0f 73 bd 37 97 cf bc
       -0.0668863 0.13326955 -0.059340846 -0.02534066
000070 f2 ff b8 bd 92 d8 33 3d 4b b2 56 bd d5 35 cf bc
       -0.09033193 0.04390771 -0.052416127 -0.025294224
000080 cf db 6b 3e 87 ce da bd a2 85 ab 3c 3e 35 a4 3c
       0.23033069 -0.10683923 0.020937745 0.02004492
000090 4b 6e b3 bd df 83 9d bc 83 66 09 be 4b 53 0f bd
       -0.08761271 -0.01922792 -0.13418011 -0.034991544
0000a0 c2 18 09 3e 9d 52 d3 bd 46 b3 8b 3d 85 39 26 be
       0.1338835 -0.103184916 0.06821303 -0.1623288
0000b0 ae 5e 55 be 78 52 11 bd b0 cd 48 bd 31 72 97 3e
       -0.20836899 -0.03547904 -0.049024284 0.2957931
0000c0 a9 7f df bd ce c6 32 3e d8 82 c8 3d 62 f5 34 be
       -0.10913021 0.1745865 0.097905815 -0.17671731
0000d0 07 a0 fe bd 7a ba 9e 3d 12 7a 14 be 15 69 db 3d
       -0.124328665 0.07750411 -0.14499691 0.10713402
0000e0 c0 75 7a 3d fb 19 59 bc 2f fd 3d be 49 47 6a bc
       0.06114745 -0.013250823 -0.18553613 -0.014299222
0000f0 0a 1d 9f 3c fa 4b 99 3d d3 51 08 3d fa 2e b7 3d
       0.019423027 0.074851945 0.03328116 0.08944507
000100 32 57 0e 3e cb 6a 18 be fd 8a 11 bd 4f 42 76 bd
       0.1390045 -0.14884488 -0.03553294 -0.06012183
000110 09 8f 31 3e 21 f8 cf 3d 11 c5 ed 3d c0 36 6f bc
       0.1733972 0.10154749 0.11609853 -0.014600456
000120 77 1a 01 bd 9b e5 77 bd df bc b4 bd b0 b0 3f 3e
       -0.03151938 -0.060521703 -0.08825087 0.18719745
000130 2b 78 13 bd a8 08 0b 3d 47 90 5c bd 71 bd b1 bd
       -0.036003273 0.033943802 -0.05384853 -0.08678711
000140 94 b4 d5 bd 7e 41 d2 3d f5 88 38 3e 06 a0 10 be
       -0.10434833 0.10266398 0.18020995 -0.14123544
000150 6b 71 4c be 8a 12 44 3d 5d f2 10 be e7 3d ec bd
       -0.1996514 0.047869243 -0.14154954 -0.115352444
000160 f8 6f 6e 3c 2a bc 80 bc 1e a1 32 3d 09 16 b5 bd
       0.014553063 -0.015714724 0.043610685 -0.088420935
000170 49 b1 ee bc 32 cd 42 3e ca ec 8e bb e9 6b e4 bc
       -0.02913727 0.19023588 -0.0043617235 -0.027883487
000180 2f d3 cf bc 5b 9f a9 3d 01 94 36 3d 95 ce 51 bc
       -0.025369255 0.08282348 0.04457474 -0.012805601
000190 bd 04 f9 3d 78 7e 90 bc f5 4b 16 3e b8 85 15 3e
       0.12159107 -0.01763843 0.14677413 0.14601791
0001a0 7a 59 92 3c 27 dc 67 3e 68 eb a3 3d 6c 73 7f 3d
       0.017864931 0.22642575 0.080038846 0.062365934
0001b0 b9 9a 9a 3b 03 d1 61 3d 8b 54 e6 3d d4 84 42 3d
       0.0047181514 0.05513097 0.11246594 0.047489956
0001c0 d1 5f a1 3d d9 ed 01 3e 4a 80 a2 3e a7 68 26 bd
       0.07879604 0.12688388 0.31738502 -0.040627148
0001d0 39 8b ad bc c3 db 37 bd 3c 62 87 bd 6d 67 65 bd
       -0.02118455 -0.044887315 -0.066105336 -0.056006838
0001e0 56 50 fc bd 88 42 81 3d 19 35 c2 bd 37 de 15 bd
       -0.1232001 0.06311518 -0.09482784 -0.036588874
0001f0 d7 3e da 3d c9 4d c4 bd 24 d7 63 be 04 3a bc bb
       0.10656517 -0.09585149 -0.22250038 -0.0057442207
000200 c7 c4 91 3d e7 0e 5e bc 14 9d bd bd f8 83 d2 3c
       0.071176104 -0.013553358 -0.09258476 0.025697693
000210 55 94 88 3d 9c 4f ab bd 3c 3e e3 3d fe f9 66 3c
       0.06668917 -0.08364794 0.11095855 0.014097689
000220 5d 2b a7 bd b9 f1 15 be e4 c2 c7 bd fd 33 4c 3d
       -0.08162568 -0.14642991 -0.09753969 0.049854267
000230 64 fc 19 bd 45 9c ab 3d d2 24 9b 3d 7b 0d 03 be
       -0.037594214 0.083794154 0.07575382 -0.12798111
000240 a7 67 ef bc 4e dc 06 be 97 31 ee bd 20 cb 1a 3e
       -0.02922423 -0.13169977 -0.11630552 0.15116549
000250 03 bf 94 bd fb 70 10 bc 6a 66 80 bc 00 71 c1 3d
       -0.07262995 -0.008815999 -0.015673835 0.09445381
000260 25 57 49 3d a1 a4 0f bd c4 d6 14 be 10 1e c5 bd
       0.049155373 -0.03506911 -0.14535052 -0.096248746
000270 60 f2 b5 bd 62 98 7b bc fa 4f 6f bc 29 7e dc bd
       -0.0888412 -0.015356155 -0.01460647 -0.10766251
000280 b9 15 05 be 65 ef 1c be af 08 b2 bd 28 7c 70 bd
       -0.12996568 -0.15325697 -0.086930625 -0.058712155
000290 55 00 08 3d 86 fc 5d bd c0 29 1c bd ab 43 5f 3d
       0.03320344 -0.054195903 -0.038125753 0.054507893
0002a0 16 a6 13 bc e4 f9 a6 3d d3 27 8d 3c 7a 19 16 3d
       -0.009011766 0.081531316 0.017230904 0.03664539
0002b0 6d 60 7f 3c 44 d4 a1 3c 96 b3 25 3e 5d f1 3a bc
       0.015586955 0.019754536 0.16181788 -0.011410085
0002c0 88 82 49 3e b6 4f 29 bc e5 ca 89 bd 3c 4d 3a bd
       0.196787 -0.010333946 -0.06728152 -0.045483813
0002d0 7e b7 43 bd 20 fe 27 3e 0f 68 92 bd 28 70 43 3e
       -0.047782414 0.16405535 -0.07148754 0.19085753
0002e0 7c be 87 bd 2f e7 bb bd eb 1b 8e bc e6 7e c3 bc
       -0.06628129 -0.09174954 -0.017347297 -0.02386422
0002f0 0e 35 03 3e e4 3c b1 3c 4f 16 79 3d 12 ee 3d bd
       0.12813208 0.02163548 0.06081229 -0.04636962
000300 d3 45 e1 bc 5a 31 b2 bd 25 d8 57 bd bf dd 34 3d
       -0.027499115 -0.08700819 -0.052696366 0.044156786
000310 67 17 4d 3c a2 a2 03 3b a5 54 ee bc e3 6b c5 bc
       0.012517787 0.002008595 -0.029093096 -0.024099296
000320 07 02 1e 3d f4 73 44 3c 37 ee 96 3b ff e2 39 3c
       0.038576152 0.011990536 0.004606034 0.011345624
000330 b2 1b c7 bc c1 8f 12 3e a3 5b 30 3e 0f a1 6f 3d
       -0.024305198 0.1431265 0.17222457 0.058503207
000340 a7 48 1e bd 12 33 fe b9 52 30 be 3d 24 5d 04 3e
       -0.038643505 -0.00048484706 0.0928656 0.12926155
000350 60 80 f5 3c 50 b1 22 3e f4 c9 7a 3d bb c2 26 3e
       0.02996844 0.15887952 0.061227754 0.16285221
000360 23 e9 28 3e d1 b3 33 3e f9 e6 9e 3d ce 74 2d be
       0.16495185 0.17549063 0.07758898 -0.16939089
000370 33 0a 81 3b 70 74 65 3d f9 99 28 3e 36 1f ed 3c
       0.0039379834 0.056019247 0.16464986 0.028945547
000380 f3 09 84 3d 19 29 aa bd b4 c2 ee bd ee 8f 46 3d
       0.0644721 -0.0830862 -0.116582304 0.048477106
000390 0f 50 9a bc 1d 78 ec 3c 89 c3 dc bc 79 e9 11 bc
       -0.018837003 0.028865868 -0.026948707 -0.008905762
0003a0 b9 ef f6 bd 9b 28 12 ba 91 7e c5 39 58 7d 69 3c
       -0.12057442 -0.00055755087 0.00037669067 0.014251076
0003b0 07 59 09 3d 02 ea 1f bd 03 18 d3 bc 74 67 a1 3a
       0.03353217 -0.039041527 -0.025768286 0.0012314157
0003c0 b8 4e b8 3d 4b d5 bb bd 49 4a c6 bd f8 42 f3 bc
       0.089993894 -0.09171542 -0.096821375 -0.02969502
0003d0 69 d8 9b bc 6b ac d2 3c 47 45 bb 3d 5f 05 69 3c
       -0.01902409 0.02571698 0.09144073 0.014222472
0003e0 c0 fb aa 3d 62 11 28 bc f7 b9 8b 3e 66 5c e9 3d
       0.08348799 -0.010258051 0.27290317 0.11394577
0003f0 91 9c 20 3c fb 13 3c bd 2d ba df 3d 3a b9 5c 3e
       0.009802953 -0.045917492 0.10924182 0.21555033

classifier.1.bias f4 [10]
000000 e9 75 82 3d c6 ef 11 be 10 9e e1 3e f7 cb 86 bd
       0.06370146 -0.14251623 0.44065905 -0.06581872
000010 2a 1f be be b3 b8 18 be c2 a3 13 3e cb 1b aa 3c
       -0.3713315 -0.14914207 0.14417937 0.020765206
000020 9e 25 13 3e 2f db f7 bd
       0.14369819 -0.12102353
